cv/pytorch/net.onnx (onnx, 563 bytes, 4 tensors)

fc1.weight f4 [10, 2]
-0.62902385 -0.45939785 -0.31717375 -0.688368 0.2560529 -0.31706232 -0.6910557 -0.5150555
-0.49870867 -0.5716007 0.4216028 -0.20539957 0.1750524 0.031969726 0.39556628 -0.2547927
0.57505053 0.4582011 -0.3528234 -0.4167895
00000000: b507 21bf 3236 ebbe 9964 a2be e338 30bf
00000010: 5e19 833e fe55 a2be 07e9 30bf adda 03bf
00000020: be56 ffbe 6c54 12bf 52dc d73e 4454 52be
00000030: f040 333e b0f2 023d aa87 ca3e 3074 82be
00000040: 8336 133f 5699 ea3e 45a5 b4be 6f65 d5be

fc1.bias f4 [10]
0.3867913 -0.030996084 0.45894212 0.28948653 0.6487513 -0.34504235 0.40039688 0.24802595
-0.5506167 0.54341024
00000000: 8209 c63e 80eb fdbc 76fa ea3e 9437 943e
00000010: 9114 263f 64a9 b0be d200 cd3e 84fa 7d3e
00000020: 37f5 0cbf ef1c 0b3f

fc2.weight f4 [2, 10]
0.30696073 0.075386435 -0.24791944 -0.23909079 0.09037432 -0.13916537 -0.301206 -0.2401042
-0.016317278 0.14151466 0.22615054 -0.10327959 0.29969922 0.11897704 -0.07013945 0.037177354
-0.234003 0.26184544 0.18715218 0.19693765
00000000: f529 9d3e 3464 9a3d 98de 7dbe 37d4 74be
00000010: 2c16 b93d 5e81 0ebe ac37 9abe e0dd 75be
00000020: d0ab 85bc 38e9 103e 0294 673e 4084 d3bd
00000030: 2d72 993e 3caa f33d 46a5 8fbd 4847 183d
00000040: 7c9e 6fbe 9b10 863e d2a4 3f3e 06aa 493e

fc2.bias f4 [2]
0.27779952 -0.08623703
00000000: bd3b 8e3e 0a9d b0bd
