cv/pytorch/net_trace.pt (torch, 4680 bytes, 4 tensors)

weight f4 [10, 2]
000000 a6 40 64 be 54 75 29 3e 57 9f ad be 87 5b 97 be
       -0.22290286 0.16548663 -0.3391063 -0.29562017
000010 4f 11 28 bf 57 cd 05 3f 4c 80 51 3e 42 66 96 3e
       -0.6565141 0.5226645 0.20459098 0.29374892
000020 70 96 7f 3d eb 47 d0 be 08 7d 39 be 3f 53 1a 3f
       0.062399328 -0.4067987 -0.18114102 0.60283273
000030 e0 82 9a bc 3a 60 ea 3e 40 8e db 3d 7a 5b 64 be
       -0.018861234 0.4577654 0.107204914 -0.2230052
000040 49 93 00 3f 42 0f 32 bf 4c c7 9b be 3a 76 a4 3e
       0.5022474 -0.6955453 -0.3042549 0.3212145

bias f4 [10]
000000 41 62 12 3f e8 14 8b 3d 47 22 23 3f ba 62 cd 3e
       0.57181174 0.06791097 0.6372418 0.40114385
000010 40 ba 8e 3d f0 0d 05 bd e7 2e 17 bf 80 44 e3 be
       0.06969118 -0.032483995 -0.5905594 -0.443882
000020 84 5d 07 3e 88 e1 c0 bd
       0.13219267 -0.09418017

weight f4 [2, 10]
000000 d0 f1 79 be e0 8a 9b bc bc 02 5a be c7 9b 95 3e
       -0.2440865 -0.01898712 -0.21290106 0.2922041
000010 60 5b 8c 3c 31 b0 3d be a4 d4 28 3e 88 e6 98 3d
       0.017133415 -0.18524243 0.16487366 0.07465845
000020 1f b1 91 3e 4e 9d 9d be 18 40 61 3d b0 54 8d bd
       0.28455445 -0.30784076 0.054992765 -0.069009185
000030 09 c5 9b 3e 90 98 92 bc 30 38 eb bc 0c 94 18 3e
       0.30423763 -0.017895013 -0.028713316 0.14900225
000040 10 57 1c 3d 90 75 26 bd 65 86 8a 3e 2a ef 79 3e
       0.038168967 -0.04063946 0.2705566 0.2440764

bias f4 [2]
000000 1b 64 86 3e 8a b9 53 be
       0.2624825 -0.20676246
