cv/pytorch/net_script.pt (torch, 5987 bytes, 4 tensors)

weight f4 [10, 2]
00000000: 194e 2e3f 689c 623e b7f7 313f 7615 c63e
00000010: 5cf8 25be 80d3 4dbd 8db0 e2be a2a7 c73e
00000020: 4862 973d 55de 093f 6047 35be 10b8 2abd
00000030: 9f17 1abf 109a 03be f0f0 d0be f190 c0be
00000040: f6e8 c83e 19fb d9be 40af f23d 39df 06bf
0.6808792 0.22129977 0.6951861 0.38688248 -0.16208023 -0.05025053 -0.44275323 0.3899508
0.073917925 0.53854877 -0.17703009 -0.041679442 -0.6019229 -0.12851739 -0.4080882 -0.37610582
0.39240235 -0.42574385 0.118498325 -0.5268436

bias f4 [10]
00000000: bd5a 0b3f 4086 f43d a078 cd3c 415d 263f
00000010: 20f9 e2bc 6557 8fbe 86d5 8f3e 97f2 d1be
00000020: 3e9c dc3e 26f4 c13e
0.5443533 0.11939669 0.025081933 0.64986044 -0.027706683 -0.27996364 0.28092593 -0.41005394
0.43087953 0.37881583

weight f4 [2, 10]
00000000: e43f ec3d 761d 5c3e a0ac 4bbc 5a75 763e
00000010: dcb9 1abe 30ee 303d 0098 9abe 1e48 743e
00000020: 2028 25be 6835 813d 7cbd a1be 80dd 003d
00000030: b2d0 0f3e 26d7 6e3e c86e ca3d 6c12 943d
00000040: 5e62 663e e6e5 e8bd a4f7 9ebe 9284 253e
0.11535624 0.21495613 -0.012431294 0.24068204 -0.15109962 0.043195903 -0.30194092 0.23855636
-0.16128588 0.063090146 -0.31589878 0.03146124 0.14044455 0.2332426 0.09884411 0.07230076
0.22498462 -0.11371975 -0.3104831 0.16163853

bias f4 [2]
00000000: 2370 30be 2a24 1f3e
-0.17230277 0.15541139
